Model: "model"
__________________________________________________________________________________________________
Layer (type)                    Output Shape         Param #     Connected to                     
==================================================================================================
input_1 (InputLayer)            [(None, 256, 384, 3) 0                                            
__________________________________________________________________________________________________
rescaling (Rescaling)           (None, 256, 384, 3)  0           input_1[0][0]                    
__________________________________________________________________________________________________
normalization (Normalization)   (None, 256, 384, 3)  7           rescaling[0][0]                  
__________________________________________________________________________________________________
stem_conv_pad (ZeroPadding2D)   (None, 257, 385, 3)  0           normalization[0][0]              
__________________________________________________________________________________________________
stem_conv (Conv2D)              (None, 128, 192, 64) 1728        stem_conv_pad[0][0]              
__________________________________________________________________________________________________
stem_bn (BatchNormalization)    (None, 128, 192, 64) 256         stem_conv[0][0]                  
__________________________________________________________________________________________________
stem_activation (Activation)    (None, 128, 192, 64) 0           stem_bn[0][0]                    
__________________________________________________________________________________________________
block1a_dwconv (DepthwiseConv2D (None, 128, 192, 64) 576         stem_activation[0][0]            
__________________________________________________________________________________________________
block1a_bn (BatchNormalization) (None, 128, 192, 64) 256         block1a_dwconv[0][0]             
__________________________________________________________________________________________________
block1a_activation (Activation) (None, 128, 192, 64) 0           block1a_bn[0][0]                 
__________________________________________________________________________________________________
block1a_se_squeeze (GlobalAvera (None, 64)           0           block1a_activation[0][0]         
__________________________________________________________________________________________________
block1a_se_reshape (Reshape)    (None, 1, 1, 64)     0           block1a_se_squeeze[0][0]         
__________________________________________________________________________________________________
block1a_se_reduce (Conv2D)      (None, 1, 1, 16)     1040        block1a_se_reshape[0][0]         
__________________________________________________________________________________________________
block1a_se_expand (Conv2D)      (None, 1, 1, 64)     1088        block1a_se_reduce[0][0]          
__________________________________________________________________________________________________
block1a_se_excite (Multiply)    (None, 128, 192, 64) 0           block1a_activation[0][0]         
                                                                 block1a_se_expand[0][0]          
__________________________________________________________________________________________________
block1a_project_conv (Conv2D)   (None, 128, 192, 32) 2048        block1a_se_excite[0][0]          
__________________________________________________________________________________________________
block1a_project_bn (BatchNormal (None, 128, 192, 32) 128         block1a_project_conv[0][0]       
__________________________________________________________________________________________________
block1b_dwconv (DepthwiseConv2D (None, 128, 192, 32) 288         block1a_project_bn[0][0]         
__________________________________________________________________________________________________
block1b_bn (BatchNormalization) (None, 128, 192, 32) 128         block1b_dwconv[0][0]             
__________________________________________________________________________________________________
block1b_activation (Activation) (None, 128, 192, 32) 0           block1b_bn[0][0]                 
__________________________________________________________________________________________________
block1b_se_squeeze (GlobalAvera (None, 32)           0           block1b_activation[0][0]         
__________________________________________________________________________________________________
block1b_se_reshape (Reshape)    (None, 1, 1, 32)     0           block1b_se_squeeze[0][0]         
__________________________________________________________________________________________________
block1b_se_reduce (Conv2D)      (None, 1, 1, 8)      264         block1b_se_reshape[0][0]         
__________________________________________________________________________________________________
block1b_se_expand (Conv2D)      (None, 1, 1, 32)     288         block1b_se_reduce[0][0]          
__________________________________________________________________________________________________
block1b_se_excite (Multiply)    (None, 128, 192, 32) 0           block1b_activation[0][0]         
                                                                 block1b_se_expand[0][0]          
__________________________________________________________________________________________________
block1b_project_conv (Conv2D)   (None, 128, 192, 32) 1024        block1b_se_excite[0][0]          
__________________________________________________________________________________________________
block1b_project_bn (BatchNormal (None, 128, 192, 32) 128         block1b_project_conv[0][0]       
__________________________________________________________________________________________________
block1b_drop (Dropout)          (None, 128, 192, 32) 0           block1b_project_bn[0][0]         
__________________________________________________________________________________________________
block1b_add (Add)               (None, 128, 192, 32) 0           block1b_drop[0][0]               
                                                                 block1a_project_bn[0][0]         
__________________________________________________________________________________________________
block1c_dwconv (DepthwiseConv2D (None, 128, 192, 32) 288         block1b_add[0][0]                
__________________________________________________________________________________________________
block1c_bn (BatchNormalization) (None, 128, 192, 32) 128         block1c_dwconv[0][0]             
__________________________________________________________________________________________________
block1c_activation (Activation) (None, 128, 192, 32) 0           block1c_bn[0][0]                 
__________________________________________________________________________________________________
block1c_se_squeeze (GlobalAvera (None, 32)           0           block1c_activation[0][0]         
__________________________________________________________________________________________________
block1c_se_reshape (Reshape)    (None, 1, 1, 32)     0           block1c_se_squeeze[0][0]         
__________________________________________________________________________________________________
block1c_se_reduce (Conv2D)      (None, 1, 1, 8)      264         block1c_se_reshape[0][0]         
__________________________________________________________________________________________________
block1c_se_expand (Conv2D)      (None, 1, 1, 32)     288         block1c_se_reduce[0][0]          
__________________________________________________________________________________________________
block1c_se_excite (Multiply)    (None, 128, 192, 32) 0           block1c_activation[0][0]         
                                                                 block1c_se_expand[0][0]          
__________________________________________________________________________________________________
block1c_project_conv (Conv2D)   (None, 128, 192, 32) 1024        block1c_se_excite[0][0]          
__________________________________________________________________________________________________
block1c_project_bn (BatchNormal (None, 128, 192, 32) 128         block1c_project_conv[0][0]       
__________________________________________________________________________________________________
block1c_drop (Dropout)          (None, 128, 192, 32) 0           block1c_project_bn[0][0]         
__________________________________________________________________________________________________
block1c_add (Add)               (None, 128, 192, 32) 0           block1c_drop[0][0]               
                                                                 block1b_add[0][0]                
__________________________________________________________________________________________________
block1d_dwconv (DepthwiseConv2D (None, 128, 192, 32) 288         block1c_add[0][0]                
__________________________________________________________________________________________________
block1d_bn (BatchNormalization) (None, 128, 192, 32) 128         block1d_dwconv[0][0]             
__________________________________________________________________________________________________
block1d_activation (Activation) (None, 128, 192, 32) 0           block1d_bn[0][0]                 
__________________________________________________________________________________________________
block1d_se_squeeze (GlobalAvera (None, 32)           0           block1d_activation[0][0]         
__________________________________________________________________________________________________
block1d_se_reshape (Reshape)    (None, 1, 1, 32)     0           block1d_se_squeeze[0][0]         
__________________________________________________________________________________________________
block1d_se_reduce (Conv2D)      (None, 1, 1, 8)      264         block1d_se_reshape[0][0]         
__________________________________________________________________________________________________
block1d_se_expand (Conv2D)      (None, 1, 1, 32)     288         block1d_se_reduce[0][0]          
__________________________________________________________________________________________________
block1d_se_excite (Multiply)    (None, 128, 192, 32) 0           block1d_activation[0][0]         
                                                                 block1d_se_expand[0][0]          
__________________________________________________________________________________________________
block1d_project_conv (Conv2D)   (None, 128, 192, 32) 1024        block1d_se_excite[0][0]          
__________________________________________________________________________________________________
block1d_project_bn (BatchNormal (None, 128, 192, 32) 128         block1d_project_conv[0][0]       
__________________________________________________________________________________________________
block1d_drop (Dropout)          (None, 128, 192, 32) 0           block1d_project_bn[0][0]         
__________________________________________________________________________________________________
block1d_add (Add)               (None, 128, 192, 32) 0           block1d_drop[0][0]               
                                                                 block1c_add[0][0]                
__________________________________________________________________________________________________
block2a_expand_conv (Conv2D)    (None, 128, 192, 192 6144        block1d_add[0][0]                
__________________________________________________________________________________________________
block2a_expand_bn (BatchNormali (None, 128, 192, 192 768         block2a_expand_conv[0][0]        
__________________________________________________________________________________________________
block2a_expand_activation (Acti (None, 128, 192, 192 0           block2a_expand_bn[0][0]          
__________________________________________________________________________________________________
block2a_dwconv_pad (ZeroPadding (None, 129, 193, 192 0           block2a_expand_activation[0][0]  
__________________________________________________________________________________________________
block2a_dwconv (DepthwiseConv2D (None, 64, 96, 192)  1728        block2a_dwconv_pad[0][0]         
__________________________________________________________________________________________________
block2a_bn (BatchNormalization) (None, 64, 96, 192)  768         block2a_dwconv[0][0]             
__________________________________________________________________________________________________
block2a_activation (Activation) (None, 64, 96, 192)  0           block2a_bn[0][0]                 
__________________________________________________________________________________________________
block2a_se_squeeze (GlobalAvera (None, 192)          0           block2a_activation[0][0]         
__________________________________________________________________________________________________
block2a_se_reshape (Reshape)    (None, 1, 1, 192)    0           block2a_se_squeeze[0][0]         
__________________________________________________________________________________________________
block2a_se_reduce (Conv2D)      (None, 1, 1, 8)      1544        block2a_se_reshape[0][0]         
__________________________________________________________________________________________________
block2a_se_expand (Conv2D)      (None, 1, 1, 192)    1728        block2a_se_reduce[0][0]          
__________________________________________________________________________________________________
block2a_se_excite (Multiply)    (None, 64, 96, 192)  0           block2a_activation[0][0]         
                                                                 block2a_se_expand[0][0]          
__________________________________________________________________________________________________
block2a_project_conv (Conv2D)   (None, 64, 96, 48)   9216        block2a_se_excite[0][0]          
__________________________________________________________________________________________________
block2a_project_bn (BatchNormal (None, 64, 96, 48)   192         block2a_project_conv[0][0]       
__________________________________________________________________________________________________
block2b_expand_conv (Conv2D)    (None, 64, 96, 288)  13824       block2a_project_bn[0][0]         
__________________________________________________________________________________________________
block2b_expand_bn (BatchNormali (None, 64, 96, 288)  1152        block2b_expand_conv[0][0]        
__________________________________________________________________________________________________
block2b_expand_activation (Acti (None, 64, 96, 288)  0           block2b_expand_bn[0][0]          
__________________________________________________________________________________________________
block2b_dwconv (DepthwiseConv2D (None, 64, 96, 288)  2592        block2b_expand_activation[0][0]  
__________________________________________________________________________________________________
block2b_bn (BatchNormalization) (None, 64, 96, 288)  1152        block2b_dwconv[0][0]             
__________________________________________________________________________________________________
block2b_activation (Activation) (None, 64, 96, 288)  0           block2b_bn[0][0]                 
__________________________________________________________________________________________________
block2b_se_squeeze (GlobalAvera (None, 288)          0           block2b_activation[0][0]         
__________________________________________________________________________________________________
block2b_se_reshape (Reshape)    (None, 1, 1, 288)    0           block2b_se_squeeze[0][0]         
__________________________________________________________________________________________________
block2b_se_reduce (Conv2D)      (None, 1, 1, 12)     3468        block2b_se_reshape[0][0]         
__________________________________________________________________________________________________
block2b_se_expand (Conv2D)      (None, 1, 1, 288)    3744        block2b_se_reduce[0][0]          
__________________________________________________________________________________________________
block2b_se_excite (Multiply)    (None, 64, 96, 288)  0           block2b_activation[0][0]         
                                                                 block2b_se_expand[0][0]          
__________________________________________________________________________________________________
block2b_project_conv (Conv2D)   (None, 64, 96, 48)   13824       block2b_se_excite[0][0]          
__________________________________________________________________________________________________
block2b_project_bn (BatchNormal (None, 64, 96, 48)   192         block2b_project_conv[0][0]       
__________________________________________________________________________________________________
block2b_drop (Dropout)          (None, 64, 96, 48)   0           block2b_project_bn[0][0]         
__________________________________________________________________________________________________
block2b_add (Add)               (None, 64, 96, 48)   0           block2b_drop[0][0]               
                                                                 block2a_project_bn[0][0]         
__________________________________________________________________________________________________
block2c_expand_conv (Conv2D)    (None, 64, 96, 288)  13824       block2b_add[0][0]                
__________________________________________________________________________________________________
block2c_expand_bn (BatchNormali (None, 64, 96, 288)  1152        block2c_expand_conv[0][0]        
__________________________________________________________________________________________________
block2c_expand_activation (Acti (None, 64, 96, 288)  0           block2c_expand_bn[0][0]          
__________________________________________________________________________________________________
block2c_dwconv (DepthwiseConv2D (None, 64, 96, 288)  2592        block2c_expand_activation[0][0]  
__________________________________________________________________________________________________
block2c_bn (BatchNormalization) (None, 64, 96, 288)  1152        block2c_dwconv[0][0]             
__________________________________________________________________________________________________
block2c_activation (Activation) (None, 64, 96, 288)  0           block2c_bn[0][0]                 
__________________________________________________________________________________________________
block2c_se_squeeze (GlobalAvera (None, 288)          0           block2c_activation[0][0]         
__________________________________________________________________________________________________
block2c_se_reshape (Reshape)    (None, 1, 1, 288)    0           block2c_se_squeeze[0][0]         
__________________________________________________________________________________________________
block2c_se_reduce (Conv2D)      (None, 1, 1, 12)     3468        block2c_se_reshape[0][0]         
__________________________________________________________________________________________________
block2c_se_expand (Conv2D)      (None, 1, 1, 288)    3744        block2c_se_reduce[0][0]          
__________________________________________________________________________________________________
block2c_se_excite (Multiply)    (None, 64, 96, 288)  0           block2c_activation[0][0]         
                                                                 block2c_se_expand[0][0]          
__________________________________________________________________________________________________
block2c_project_conv (Conv2D)   (None, 64, 96, 48)   13824       block2c_se_excite[0][0]          
__________________________________________________________________________________________________
block2c_project_bn (BatchNormal (None, 64, 96, 48)   192         block2c_project_conv[0][0]       
__________________________________________________________________________________________________
block2c_drop (Dropout)          (None, 64, 96, 48)   0           block2c_project_bn[0][0]         
__________________________________________________________________________________________________
block2c_add (Add)               (None, 64, 96, 48)   0           block2c_drop[0][0]               
                                                                 block2b_add[0][0]                
__________________________________________________________________________________________________
block2d_expand_conv (Conv2D)    (None, 64, 96, 288)  13824       block2c_add[0][0]                
__________________________________________________________________________________________________
block2d_expand_bn (BatchNormali (None, 64, 96, 288)  1152        block2d_expand_conv[0][0]        
__________________________________________________________________________________________________
block2d_expand_activation (Acti (None, 64, 96, 288)  0           block2d_expand_bn[0][0]          
__________________________________________________________________________________________________
block2d_dwconv (DepthwiseConv2D (None, 64, 96, 288)  2592        block2d_expand_activation[0][0]  
__________________________________________________________________________________________________
block2d_bn (BatchNormalization) (None, 64, 96, 288)  1152        block2d_dwconv[0][0]             
__________________________________________________________________________________________________
block2d_activation (Activation) (None, 64, 96, 288)  0           block2d_bn[0][0]                 
__________________________________________________________________________________________________
block2d_se_squeeze (GlobalAvera (None, 288)          0           block2d_activation[0][0]         
__________________________________________________________________________________________________
block2d_se_reshape (Reshape)    (None, 1, 1, 288)    0           block2d_se_squeeze[0][0]         
__________________________________________________________________________________________________
block2d_se_reduce (Conv2D)      (None, 1, 1, 12)     3468        block2d_se_reshape[0][0]         
__________________________________________________________________________________________________
block2d_se_expand (Conv2D)      (None, 1, 1, 288)    3744        block2d_se_reduce[0][0]          
__________________________________________________________________________________________________
block2d_se_excite (Multiply)    (None, 64, 96, 288)  0           block2d_activation[0][0]         
                                                                 block2d_se_expand[0][0]          
__________________________________________________________________________________________________
block2d_project_conv (Conv2D)   (None, 64, 96, 48)   13824       block2d_se_excite[0][0]          
__________________________________________________________________________________________________
block2d_project_bn (BatchNormal (None, 64, 96, 48)   192         block2d_project_conv[0][0]       
__________________________________________________________________________________________________
block2d_drop (Dropout)          (None, 64, 96, 48)   0           block2d_project_bn[0][0]         
__________________________________________________________________________________________________
block2d_add (Add)               (None, 64, 96, 48)   0           block2d_drop[0][0]               
                                                                 block2c_add[0][0]                
__________________________________________________________________________________________________
block2e_expand_conv (Conv2D)    (None, 64, 96, 288)  13824       block2d_add[0][0]                
__________________________________________________________________________________________________
block2e_expand_bn (BatchNormali (None, 64, 96, 288)  1152        block2e_expand_conv[0][0]        
__________________________________________________________________________________________________
block2e_expand_activation (Acti (None, 64, 96, 288)  0           block2e_expand_bn[0][0]          
__________________________________________________________________________________________________
block2e_dwconv (DepthwiseConv2D (None, 64, 96, 288)  2592        block2e_expand_activation[0][0]  
__________________________________________________________________________________________________
block2e_bn (BatchNormalization) (None, 64, 96, 288)  1152        block2e_dwconv[0][0]             
__________________________________________________________________________________________________
block2e_activation (Activation) (None, 64, 96, 288)  0           block2e_bn[0][0]                 
__________________________________________________________________________________________________
block2e_se_squeeze (GlobalAvera (None, 288)          0           block2e_activation[0][0]         
__________________________________________________________________________________________________
block2e_se_reshape (Reshape)    (None, 1, 1, 288)    0           block2e_se_squeeze[0][0]         
__________________________________________________________________________________________________
block2e_se_reduce (Conv2D)      (None, 1, 1, 12)     3468        block2e_se_reshape[0][0]         
__________________________________________________________________________________________________
block2e_se_expand (Conv2D)      (None, 1, 1, 288)    3744        block2e_se_reduce[0][0]          
__________________________________________________________________________________________________
block2e_se_excite (Multiply)    (None, 64, 96, 288)  0           block2e_activation[0][0]         
                                                                 block2e_se_expand[0][0]          
__________________________________________________________________________________________________
block2e_project_conv (Conv2D)   (None, 64, 96, 48)   13824       block2e_se_excite[0][0]          
__________________________________________________________________________________________________
block2e_project_bn (BatchNormal (None, 64, 96, 48)   192         block2e_project_conv[0][0]       
__________________________________________________________________________________________________
block2e_drop (Dropout)          (None, 64, 96, 48)   0           block2e_project_bn[0][0]         
__________________________________________________________________________________________________
block2e_add (Add)               (None, 64, 96, 48)   0           block2e_drop[0][0]               
                                                                 block2d_add[0][0]                
__________________________________________________________________________________________________
block2f_expand_conv (Conv2D)    (None, 64, 96, 288)  13824       block2e_add[0][0]                
__________________________________________________________________________________________________
block2f_expand_bn (BatchNormali (None, 64, 96, 288)  1152        block2f_expand_conv[0][0]        
__________________________________________________________________________________________________
block2f_expand_activation (Acti (None, 64, 96, 288)  0           block2f_expand_bn[0][0]          
__________________________________________________________________________________________________
block2f_dwconv (DepthwiseConv2D (None, 64, 96, 288)  2592        block2f_expand_activation[0][0]  
__________________________________________________________________________________________________
block2f_bn (BatchNormalization) (None, 64, 96, 288)  1152        block2f_dwconv[0][0]             
__________________________________________________________________________________________________
block2f_activation (Activation) (None, 64, 96, 288)  0           block2f_bn[0][0]                 
__________________________________________________________________________________________________
block2f_se_squeeze (GlobalAvera (None, 288)          0           block2f_activation[0][0]         
__________________________________________________________________________________________________
block2f_se_reshape (Reshape)    (None, 1, 1, 288)    0           block2f_se_squeeze[0][0]         
__________________________________________________________________________________________________
block2f_se_reduce (Conv2D)      (None, 1, 1, 12)     3468        block2f_se_reshape[0][0]         
__________________________________________________________________________________________________
block2f_se_expand (Conv2D)      (None, 1, 1, 288)    3744        block2f_se_reduce[0][0]          
__________________________________________________________________________________________________
block2f_se_excite (Multiply)    (None, 64, 96, 288)  0           block2f_activation[0][0]         
                                                                 block2f_se_expand[0][0]          
__________________________________________________________________________________________________
block2f_project_conv (Conv2D)   (None, 64, 96, 48)   13824       block2f_se_excite[0][0]          
__________________________________________________________________________________________________
block2f_project_bn (BatchNormal (None, 64, 96, 48)   192         block2f_project_conv[0][0]       
__________________________________________________________________________________________________
block2f_drop (Dropout)          (None, 64, 96, 48)   0           block2f_project_bn[0][0]         
__________________________________________________________________________________________________
block2f_add (Add)               (None, 64, 96, 48)   0           block2f_drop[0][0]               
                                                                 block2e_add[0][0]                
__________________________________________________________________________________________________
block2g_expand_conv (Conv2D)    (None, 64, 96, 288)  13824       block2f_add[0][0]                
__________________________________________________________________________________________________
block2g_expand_bn (BatchNormali (None, 64, 96, 288)  1152        block2g_expand_conv[0][0]        
__________________________________________________________________________________________________
block2g_expand_activation (Acti (None, 64, 96, 288)  0           block2g_expand_bn[0][0]          
__________________________________________________________________________________________________
block2g_dwconv (DepthwiseConv2D (None, 64, 96, 288)  2592        block2g_expand_activation[0][0]  
__________________________________________________________________________________________________
block2g_bn (BatchNormalization) (None, 64, 96, 288)  1152        block2g_dwconv[0][0]             
__________________________________________________________________________________________________
block2g_activation (Activation) (None, 64, 96, 288)  0           block2g_bn[0][0]                 
__________________________________________________________________________________________________
block2g_se_squeeze (GlobalAvera (None, 288)          0           block2g_activation[0][0]         
__________________________________________________________________________________________________
block2g_se_reshape (Reshape)    (None, 1, 1, 288)    0           block2g_se_squeeze[0][0]         
__________________________________________________________________________________________________
block2g_se_reduce (Conv2D)      (None, 1, 1, 12)     3468        block2g_se_reshape[0][0]         
__________________________________________________________________________________________________
block2g_se_expand (Conv2D)      (None, 1, 1, 288)    3744        block2g_se_reduce[0][0]          
__________________________________________________________________________________________________
block2g_se_excite (Multiply)    (None, 64, 96, 288)  0           block2g_activation[0][0]         
                                                                 block2g_se_expand[0][0]          
__________________________________________________________________________________________________
block2g_project_conv (Conv2D)   (None, 64, 96, 48)   13824       block2g_se_excite[0][0]          
__________________________________________________________________________________________________
block2g_project_bn (BatchNormal (None, 64, 96, 48)   192         block2g_project_conv[0][0]       
__________________________________________________________________________________________________
block2g_drop (Dropout)          (None, 64, 96, 48)   0           block2g_project_bn[0][0]         
__________________________________________________________________________________________________
block2g_add (Add)               (None, 64, 96, 48)   0           block2g_drop[0][0]               
                                                                 block2f_add[0][0]                
__________________________________________________________________________________________________
block3a_expand_conv (Conv2D)    (None, 64, 96, 288)  13824       block2g_add[0][0]                
__________________________________________________________________________________________________
block3a_expand_bn (BatchNormali (None, 64, 96, 288)  1152        block3a_expand_conv[0][0]        
__________________________________________________________________________________________________
block3a_expand_activation (Acti (None, 64, 96, 288)  0           block3a_expand_bn[0][0]          
__________________________________________________________________________________________________
block3a_dwconv_pad (ZeroPadding (None, 67, 99, 288)  0           block3a_expand_activation[0][0]  
__________________________________________________________________________________________________
block3a_dwconv (DepthwiseConv2D (None, 32, 48, 288)  7200        block3a_dwconv_pad[0][0]         
__________________________________________________________________________________________________
block3a_bn (BatchNormalization) (None, 32, 48, 288)  1152        block3a_dwconv[0][0]             
__________________________________________________________________________________________________
block3a_activation (Activation) (None, 32, 48, 288)  0           block3a_bn[0][0]                 
__________________________________________________________________________________________________
block3a_se_squeeze (GlobalAvera (None, 288)          0           block3a_activation[0][0]         
__________________________________________________________________________________________________
block3a_se_reshape (Reshape)    (None, 1, 1, 288)    0           block3a_se_squeeze[0][0]         
__________________________________________________________________________________________________
block3a_se_reduce (Conv2D)      (None, 1, 1, 12)     3468        block3a_se_reshape[0][0]         
__________________________________________________________________________________________________
block3a_se_expand (Conv2D)      (None, 1, 1, 288)    3744        block3a_se_reduce[0][0]          
__________________________________________________________________________________________________
block3a_se_excite (Multiply)    (None, 32, 48, 288)  0           block3a_activation[0][0]         
                                                                 block3a_se_expand[0][0]          
__________________________________________________________________________________________________
block3a_project_conv (Conv2D)   (None, 32, 48, 80)   23040       block3a_se_excite[0][0]          
__________________________________________________________________________________________________
block3a_project_bn (BatchNormal (None, 32, 48, 80)   320         block3a_project_conv[0][0]       
__________________________________________________________________________________________________
block3b_expand_conv (Conv2D)    (None, 32, 48, 480)  38400       block3a_project_bn[0][0]         
__________________________________________________________________________________________________
block3b_expand_bn (BatchNormali (None, 32, 48, 480)  1920        block3b_expand_conv[0][0]        
__________________________________________________________________________________________________
block3b_expand_activation (Acti (None, 32, 48, 480)  0           block3b_expand_bn[0][0]          
__________________________________________________________________________________________________
block3b_dwconv (DepthwiseConv2D (None, 32, 48, 480)  12000       block3b_expand_activation[0][0]  
__________________________________________________________________________________________________
block3b_bn (BatchNormalization) (None, 32, 48, 480)  1920        block3b_dwconv[0][0]             
__________________________________________________________________________________________________
block3b_activation (Activation) (None, 32, 48, 480)  0           block3b_bn[0][0]                 
__________________________________________________________________________________________________
block3b_se_squeeze (GlobalAvera (None, 480)          0           block3b_activation[0][0]         
__________________________________________________________________________________________________
block3b_se_reshape (Reshape)    (None, 1, 1, 480)    0           block3b_se_squeeze[0][0]         
__________________________________________________________________________________________________
block3b_se_reduce (Conv2D)      (None, 1, 1, 20)     9620        block3b_se_reshape[0][0]         
__________________________________________________________________________________________________
block3b_se_expand (Conv2D)      (None, 1, 1, 480)    10080       block3b_se_reduce[0][0]          
__________________________________________________________________________________________________
block3b_se_excite (Multiply)    (None, 32, 48, 480)  0           block3b_activation[0][0]         
                                                                 block3b_se_expand[0][0]          
__________________________________________________________________________________________________
block3b_project_conv (Conv2D)   (None, 32, 48, 80)   38400       block3b_se_excite[0][0]          
__________________________________________________________________________________________________
block3b_project_bn (BatchNormal (None, 32, 48, 80)   320         block3b_project_conv[0][0]       
__________________________________________________________________________________________________
block3b_drop (Dropout)          (None, 32, 48, 80)   0           block3b_project_bn[0][0]         
__________________________________________________________________________________________________
block3b_add (Add)               (None, 32, 48, 80)   0           block3b_drop[0][0]               
                                                                 block3a_project_bn[0][0]         
__________________________________________________________________________________________________
block3c_expand_conv (Conv2D)    (None, 32, 48, 480)  38400       block3b_add[0][0]                
__________________________________________________________________________________________________
block3c_expand_bn (BatchNormali (None, 32, 48, 480)  1920        block3c_expand_conv[0][0]        
__________________________________________________________________________________________________
block3c_expand_activation (Acti (None, 32, 48, 480)  0           block3c_expand_bn[0][0]          
__________________________________________________________________________________________________
block3c_dwconv (DepthwiseConv2D (None, 32, 48, 480)  12000       block3c_expand_activation[0][0]  
__________________________________________________________________________________________________
block3c_bn (BatchNormalization) (None, 32, 48, 480)  1920        block3c_dwconv[0][0]             
__________________________________________________________________________________________________
block3c_activation (Activation) (None, 32, 48, 480)  0           block3c_bn[0][0]                 
__________________________________________________________________________________________________
block3c_se_squeeze (GlobalAvera (None, 480)          0           block3c_activation[0][0]         
__________________________________________________________________________________________________
block3c_se_reshape (Reshape)    (None, 1, 1, 480)    0           block3c_se_squeeze[0][0]         
__________________________________________________________________________________________________
block3c_se_reduce (Conv2D)      (None, 1, 1, 20)     9620        block3c_se_reshape[0][0]         
__________________________________________________________________________________________________
block3c_se_expand (Conv2D)      (None, 1, 1, 480)    10080       block3c_se_reduce[0][0]          
__________________________________________________________________________________________________
block3c_se_excite (Multiply)    (None, 32, 48, 480)  0           block3c_activation[0][0]         
                                                                 block3c_se_expand[0][0]          
__________________________________________________________________________________________________
block3c_project_conv (Conv2D)   (None, 32, 48, 80)   38400       block3c_se_excite[0][0]          
__________________________________________________________________________________________________
block3c_project_bn (BatchNormal (None, 32, 48, 80)   320         block3c_project_conv[0][0]       
__________________________________________________________________________________________________
block3c_drop (Dropout)          (None, 32, 48, 80)   0           block3c_project_bn[0][0]         
__________________________________________________________________________________________________
block3c_add (Add)               (None, 32, 48, 80)   0           block3c_drop[0][0]               
                                                                 block3b_add[0][0]                
__________________________________________________________________________________________________
block3d_expand_conv (Conv2D)    (None, 32, 48, 480)  38400       block3c_add[0][0]                
__________________________________________________________________________________________________
block3d_expand_bn (BatchNormali (None, 32, 48, 480)  1920        block3d_expand_conv[0][0]        
__________________________________________________________________________________________________
block3d_expand_activation (Acti (None, 32, 48, 480)  0           block3d_expand_bn[0][0]          
__________________________________________________________________________________________________
block3d_dwconv (DepthwiseConv2D (None, 32, 48, 480)  12000       block3d_expand_activation[0][0]  
__________________________________________________________________________________________________
block3d_bn (BatchNormalization) (None, 32, 48, 480)  1920        block3d_dwconv[0][0]             
__________________________________________________________________________________________________
block3d_activation (Activation) (None, 32, 48, 480)  0           block3d_bn[0][0]                 
__________________________________________________________________________________________________
block3d_se_squeeze (GlobalAvera (None, 480)          0           block3d_activation[0][0]         
__________________________________________________________________________________________________
block3d_se_reshape (Reshape)    (None, 1, 1, 480)    0           block3d_se_squeeze[0][0]         
__________________________________________________________________________________________________
block3d_se_reduce (Conv2D)      (None, 1, 1, 20)     9620        block3d_se_reshape[0][0]         
__________________________________________________________________________________________________
block3d_se_expand (Conv2D)      (None, 1, 1, 480)    10080       block3d_se_reduce[0][0]          
__________________________________________________________________________________________________
block3d_se_excite (Multiply)    (None, 32, 48, 480)  0           block3d_activation[0][0]         
                                                                 block3d_se_expand[0][0]          
__________________________________________________________________________________________________
block3d_project_conv (Conv2D)   (None, 32, 48, 80)   38400       block3d_se_excite[0][0]          
__________________________________________________________________________________________________
block3d_project_bn (BatchNormal (None, 32, 48, 80)   320         block3d_project_conv[0][0]       
__________________________________________________________________________________________________
block3d_drop (Dropout)          (None, 32, 48, 80)   0           block3d_project_bn[0][0]         
__________________________________________________________________________________________________
block3d_add (Add)               (None, 32, 48, 80)   0           block3d_drop[0][0]               
                                                                 block3c_add[0][0]                
__________________________________________________________________________________________________
block3e_expand_conv (Conv2D)    (None, 32, 48, 480)  38400       block3d_add[0][0]                
__________________________________________________________________________________________________
block3e_expand_bn (BatchNormali (None, 32, 48, 480)  1920        block3e_expand_conv[0][0]        
__________________________________________________________________________________________________
block3e_expand_activation (Acti (None, 32, 48, 480)  0           block3e_expand_bn[0][0]          
__________________________________________________________________________________________________
block3e_dwconv (DepthwiseConv2D (None, 32, 48, 480)  12000       block3e_expand_activation[0][0]  
__________________________________________________________________________________________________
block3e_bn (BatchNormalization) (None, 32, 48, 480)  1920        block3e_dwconv[0][0]             
__________________________________________________________________________________________________
block3e_activation (Activation) (None, 32, 48, 480)  0           block3e_bn[0][0]                 
__________________________________________________________________________________________________
block3e_se_squeeze (GlobalAvera (None, 480)          0           block3e_activation[0][0]         
__________________________________________________________________________________________________
block3e_se_reshape (Reshape)    (None, 1, 1, 480)    0           block3e_se_squeeze[0][0]         
__________________________________________________________________________________________________
block3e_se_reduce (Conv2D)      (None, 1, 1, 20)     9620        block3e_se_reshape[0][0]         
__________________________________________________________________________________________________
block3e_se_expand (Conv2D)      (None, 1, 1, 480)    10080       block3e_se_reduce[0][0]          
__________________________________________________________________________________________________
block3e_se_excite (Multiply)    (None, 32, 48, 480)  0           block3e_activation[0][0]         
                                                                 block3e_se_expand[0][0]          
__________________________________________________________________________________________________
block3e_project_conv (Conv2D)   (None, 32, 48, 80)   38400       block3e_se_excite[0][0]          
__________________________________________________________________________________________________
block3e_project_bn (BatchNormal (None, 32, 48, 80)   320         block3e_project_conv[0][0]       
__________________________________________________________________________________________________
block3e_drop (Dropout)          (None, 32, 48, 80)   0           block3e_project_bn[0][0]         
__________________________________________________________________________________________________
block3e_add (Add)               (None, 32, 48, 80)   0           block3e_drop[0][0]               
                                                                 block3d_add[0][0]                
__________________________________________________________________________________________________
block3f_expand_conv (Conv2D)    (None, 32, 48, 480)  38400       block3e_add[0][0]                
__________________________________________________________________________________________________
block3f_expand_bn (BatchNormali (None, 32, 48, 480)  1920        block3f_expand_conv[0][0]        
__________________________________________________________________________________________________
block3f_expand_activation (Acti (None, 32, 48, 480)  0           block3f_expand_bn[0][0]          
__________________________________________________________________________________________________
block3f_dwconv (DepthwiseConv2D (None, 32, 48, 480)  12000       block3f_expand_activation[0][0]  
__________________________________________________________________________________________________
block3f_bn (BatchNormalization) (None, 32, 48, 480)  1920        block3f_dwconv[0][0]             
__________________________________________________________________________________________________
block3f_activation (Activation) (None, 32, 48, 480)  0           block3f_bn[0][0]                 
__________________________________________________________________________________________________
block3f_se_squeeze (GlobalAvera (None, 480)          0           block3f_activation[0][0]         
__________________________________________________________________________________________________
block3f_se_reshape (Reshape)    (None, 1, 1, 480)    0           block3f_se_squeeze[0][0]         
__________________________________________________________________________________________________
block3f_se_reduce (Conv2D)      (None, 1, 1, 20)     9620        block3f_se_reshape[0][0]         
__________________________________________________________________________________________________
block3f_se_expand (Conv2D)      (None, 1, 1, 480)    10080       block3f_se_reduce[0][0]          
__________________________________________________________________________________________________
block3f_se_excite (Multiply)    (None, 32, 48, 480)  0           block3f_activation[0][0]         
                                                                 block3f_se_expand[0][0]          
__________________________________________________________________________________________________
block3f_project_conv (Conv2D)   (None, 32, 48, 80)   38400       block3f_se_excite[0][0]          
__________________________________________________________________________________________________
block3f_project_bn (BatchNormal (None, 32, 48, 80)   320         block3f_project_conv[0][0]       
__________________________________________________________________________________________________
block3f_drop (Dropout)          (None, 32, 48, 80)   0           block3f_project_bn[0][0]         
__________________________________________________________________________________________________
block3f_add (Add)               (None, 32, 48, 80)   0           block3f_drop[0][0]               
                                                                 block3e_add[0][0]                
__________________________________________________________________________________________________
block3g_expand_conv (Conv2D)    (None, 32, 48, 480)  38400       block3f_add[0][0]                
__________________________________________________________________________________________________
block3g_expand_bn (BatchNormali (None, 32, 48, 480)  1920        block3g_expand_conv[0][0]        
__________________________________________________________________________________________________
block3g_expand_activation (Acti (None, 32, 48, 480)  0           block3g_expand_bn[0][0]          
__________________________________________________________________________________________________
block3g_dwconv (DepthwiseConv2D (None, 32, 48, 480)  12000       block3g_expand_activation[0][0]  
__________________________________________________________________________________________________
block3g_bn (BatchNormalization) (None, 32, 48, 480)  1920        block3g_dwconv[0][0]             
__________________________________________________________________________________________________
block3g_activation (Activation) (None, 32, 48, 480)  0           block3g_bn[0][0]                 
__________________________________________________________________________________________________
block3g_se_squeeze (GlobalAvera (None, 480)          0           block3g_activation[0][0]         
__________________________________________________________________________________________________
block3g_se_reshape (Reshape)    (None, 1, 1, 480)    0           block3g_se_squeeze[0][0]         
__________________________________________________________________________________________________
block3g_se_reduce (Conv2D)      (None, 1, 1, 20)     9620        block3g_se_reshape[0][0]         
__________________________________________________________________________________________________
block3g_se_expand (Conv2D)      (None, 1, 1, 480)    10080       block3g_se_reduce[0][0]          
__________________________________________________________________________________________________
block3g_se_excite (Multiply)    (None, 32, 48, 480)  0           block3g_activation[0][0]         
                                                                 block3g_se_expand[0][0]          
__________________________________________________________________________________________________
block3g_project_conv (Conv2D)   (None, 32, 48, 80)   38400       block3g_se_excite[0][0]          
__________________________________________________________________________________________________
block3g_project_bn (BatchNormal (None, 32, 48, 80)   320         block3g_project_conv[0][0]       
__________________________________________________________________________________________________
block3g_drop (Dropout)          (None, 32, 48, 80)   0           block3g_project_bn[0][0]         
__________________________________________________________________________________________________
block3g_add (Add)               (None, 32, 48, 80)   0           block3g_drop[0][0]               
                                                                 block3f_add[0][0]                
__________________________________________________________________________________________________
block4a_expand_conv (Conv2D)    (None, 32, 48, 480)  38400       block3g_add[0][0]                
__________________________________________________________________________________________________
block4a_expand_bn (BatchNormali (None, 32, 48, 480)  1920        block4a_expand_conv[0][0]        
__________________________________________________________________________________________________
block4a_expand_activation (Acti (None, 32, 48, 480)  0           block4a_expand_bn[0][0]          
__________________________________________________________________________________________________
block4a_dwconv_pad (ZeroPadding (None, 33, 49, 480)  0           block4a_expand_activation[0][0]  
__________________________________________________________________________________________________
block4a_dwconv (DepthwiseConv2D (None, 16, 24, 480)  4320        block4a_dwconv_pad[0][0]         
__________________________________________________________________________________________________
block4a_bn (BatchNormalization) (None, 16, 24, 480)  1920        block4a_dwconv[0][0]             
__________________________________________________________________________________________________
block4a_activation (Activation) (None, 16, 24, 480)  0           block4a_bn[0][0]                 
__________________________________________________________________________________________________
block4a_se_squeeze (GlobalAvera (None, 480)          0           block4a_activation[0][0]         
__________________________________________________________________________________________________
block4a_se_reshape (Reshape)    (None, 1, 1, 480)    0           block4a_se_squeeze[0][0]         
__________________________________________________________________________________________________
block4a_se_reduce (Conv2D)      (None, 1, 1, 20)     9620        block4a_se_reshape[0][0]         
__________________________________________________________________________________________________
block4a_se_expand (Conv2D)      (None, 1, 1, 480)    10080       block4a_se_reduce[0][0]          
__________________________________________________________________________________________________
block4a_se_excite (Multiply)    (None, 16, 24, 480)  0           block4a_activation[0][0]         
                                                                 block4a_se_expand[0][0]          
__________________________________________________________________________________________________
block4a_project_conv (Conv2D)   (None, 16, 24, 160)  76800       block4a_se_excite[0][0]          
__________________________________________________________________________________________________
block4a_project_bn (BatchNormal (None, 16, 24, 160)  640         block4a_project_conv[0][0]       
__________________________________________________________________________________________________
block4b_expand_conv (Conv2D)    (None, 16, 24, 960)  153600      block4a_project_bn[0][0]         
__________________________________________________________________________________________________
block4b_expand_bn (BatchNormali (None, 16, 24, 960)  3840        block4b_expand_conv[0][0]        
__________________________________________________________________________________________________
block4b_expand_activation (Acti (None, 16, 24, 960)  0           block4b_expand_bn[0][0]          
__________________________________________________________________________________________________
block4b_dwconv (DepthwiseConv2D (None, 16, 24, 960)  8640        block4b_expand_activation[0][0]  
__________________________________________________________________________________________________
block4b_bn (BatchNormalization) (None, 16, 24, 960)  3840        block4b_dwconv[0][0]             
__________________________________________________________________________________________________
block4b_activation (Activation) (None, 16, 24, 960)  0           block4b_bn[0][0]                 
__________________________________________________________________________________________________
block4b_se_squeeze (GlobalAvera (None, 960)          0           block4b_activation[0][0]         
__________________________________________________________________________________________________
block4b_se_reshape (Reshape)    (None, 1, 1, 960)    0           block4b_se_squeeze[0][0]         
__________________________________________________________________________________________________
block4b_se_reduce (Conv2D)      (None, 1, 1, 40)     38440       block4b_se_reshape[0][0]         
__________________________________________________________________________________________________
block4b_se_expand (Conv2D)      (None, 1, 1, 960)    39360       block4b_se_reduce[0][0]          
__________________________________________________________________________________________________
block4b_se_excite (Multiply)    (None, 16, 24, 960)  0           block4b_activation[0][0]         
                                                                 block4b_se_expand[0][0]          
__________________________________________________________________________________________________
block4b_project_conv (Conv2D)   (None, 16, 24, 160)  153600      block4b_se_excite[0][0]          
__________________________________________________________________________________________________
block4b_project_bn (BatchNormal (None, 16, 24, 160)  640         block4b_project_conv[0][0]       
__________________________________________________________________________________________________
block4b_drop (Dropout)          (None, 16, 24, 160)  0           block4b_project_bn[0][0]         
__________________________________________________________________________________________________
block4b_add (Add)               (None, 16, 24, 160)  0           block4b_drop[0][0]               
                                                                 block4a_project_bn[0][0]         
__________________________________________________________________________________________________
block4c_expand_conv (Conv2D)    (None, 16, 24, 960)  153600      block4b_add[0][0]                
__________________________________________________________________________________________________
block4c_expand_bn (BatchNormali (None, 16, 24, 960)  3840        block4c_expand_conv[0][0]        
__________________________________________________________________________________________________
block4c_expand_activation (Acti (None, 16, 24, 960)  0           block4c_expand_bn[0][0]          
__________________________________________________________________________________________________
block4c_dwconv (DepthwiseConv2D (None, 16, 24, 960)  8640        block4c_expand_activation[0][0]  
__________________________________________________________________________________________________
block4c_bn (BatchNormalization) (None, 16, 24, 960)  3840        block4c_dwconv[0][0]             
__________________________________________________________________________________________________
block4c_activation (Activation) (None, 16, 24, 960)  0           block4c_bn[0][0]                 
__________________________________________________________________________________________________
block4c_se_squeeze (GlobalAvera (None, 960)          0           block4c_activation[0][0]         
__________________________________________________________________________________________________
block4c_se_reshape (Reshape)    (None, 1, 1, 960)    0           block4c_se_squeeze[0][0]         
__________________________________________________________________________________________________
block4c_se_reduce (Conv2D)      (None, 1, 1, 40)     38440       block4c_se_reshape[0][0]         
__________________________________________________________________________________________________
block4c_se_expand (Conv2D)      (None, 1, 1, 960)    39360       block4c_se_reduce[0][0]          
__________________________________________________________________________________________________
block4c_se_excite (Multiply)    (None, 16, 24, 960)  0           block4c_activation[0][0]         
                                                                 block4c_se_expand[0][0]          
__________________________________________________________________________________________________
block4c_project_conv (Conv2D)   (None, 16, 24, 160)  153600      block4c_se_excite[0][0]          
__________________________________________________________________________________________________
block4c_project_bn (BatchNormal (None, 16, 24, 160)  640         block4c_project_conv[0][0]       
__________________________________________________________________________________________________
block4c_drop (Dropout)          (None, 16, 24, 160)  0           block4c_project_bn[0][0]         
__________________________________________________________________________________________________
block4c_add (Add)               (None, 16, 24, 160)  0           block4c_drop[0][0]               
                                                                 block4b_add[0][0]                
__________________________________________________________________________________________________
block4d_expand_conv (Conv2D)    (None, 16, 24, 960)  153600      block4c_add[0][0]                
__________________________________________________________________________________________________
block4d_expand_bn (BatchNormali (None, 16, 24, 960)  3840        block4d_expand_conv[0][0]        
__________________________________________________________________________________________________
block4d_expand_activation (Acti (None, 16, 24, 960)  0           block4d_expand_bn[0][0]          
__________________________________________________________________________________________________
block4d_dwconv (DepthwiseConv2D (None, 16, 24, 960)  8640        block4d_expand_activation[0][0]  
__________________________________________________________________________________________________
block4d_bn (BatchNormalization) (None, 16, 24, 960)  3840        block4d_dwconv[0][0]             
__________________________________________________________________________________________________
block4d_activation (Activation) (None, 16, 24, 960)  0           block4d_bn[0][0]                 
__________________________________________________________________________________________________
block4d_se_squeeze (GlobalAvera (None, 960)          0           block4d_activation[0][0]         
__________________________________________________________________________________________________
block4d_se_reshape (Reshape)    (None, 1, 1, 960)    0           block4d_se_squeeze[0][0]         
__________________________________________________________________________________________________
block4d_se_reduce (Conv2D)      (None, 1, 1, 40)     38440       block4d_se_reshape[0][0]         
__________________________________________________________________________________________________
block4d_se_expand (Conv2D)      (None, 1, 1, 960)    39360       block4d_se_reduce[0][0]          
__________________________________________________________________________________________________
block4d_se_excite (Multiply)    (None, 16, 24, 960)  0           block4d_activation[0][0]         
                                                                 block4d_se_expand[0][0]          
__________________________________________________________________________________________________
block4d_project_conv (Conv2D)   (None, 16, 24, 160)  153600      block4d_se_excite[0][0]          
__________________________________________________________________________________________________
block4d_project_bn (BatchNormal (None, 16, 24, 160)  640         block4d_project_conv[0][0]       
__________________________________________________________________________________________________
block4d_drop (Dropout)          (None, 16, 24, 160)  0           block4d_project_bn[0][0]         
__________________________________________________________________________________________________
block4d_add (Add)               (None, 16, 24, 160)  0           block4d_drop[0][0]               
                                                                 block4c_add[0][0]                
__________________________________________________________________________________________________
block4e_expand_conv (Conv2D)    (None, 16, 24, 960)  153600      block4d_add[0][0]                
__________________________________________________________________________________________________
block4e_expand_bn (BatchNormali (None, 16, 24, 960)  3840        block4e_expand_conv[0][0]        
__________________________________________________________________________________________________
block4e_expand_activation (Acti (None, 16, 24, 960)  0           block4e_expand_bn[0][0]          
__________________________________________________________________________________________________
block4e_dwconv (DepthwiseConv2D (None, 16, 24, 960)  8640        block4e_expand_activation[0][0]  
__________________________________________________________________________________________________
block4e_bn (BatchNormalization) (None, 16, 24, 960)  3840        block4e_dwconv[0][0]             
__________________________________________________________________________________________________
block4e_activation (Activation) (None, 16, 24, 960)  0           block4e_bn[0][0]                 
__________________________________________________________________________________________________
block4e_se_squeeze (GlobalAvera (None, 960)          0           block4e_activation[0][0]         
__________________________________________________________________________________________________
block4e_se_reshape (Reshape)    (None, 1, 1, 960)    0           block4e_se_squeeze[0][0]         
__________________________________________________________________________________________________
block4e_se_reduce (Conv2D)      (None, 1, 1, 40)     38440       block4e_se_reshape[0][0]         
__________________________________________________________________________________________________
block4e_se_expand (Conv2D)      (None, 1, 1, 960)    39360       block4e_se_reduce[0][0]          
__________________________________________________________________________________________________
block4e_se_excite (Multiply)    (None, 16, 24, 960)  0           block4e_activation[0][0]         
                                                                 block4e_se_expand[0][0]          
__________________________________________________________________________________________________
block4e_project_conv (Conv2D)   (None, 16, 24, 160)  153600      block4e_se_excite[0][0]          
__________________________________________________________________________________________________
block4e_project_bn (BatchNormal (None, 16, 24, 160)  640         block4e_project_conv[0][0]       
__________________________________________________________________________________________________
block4e_drop (Dropout)          (None, 16, 24, 160)  0           block4e_project_bn[0][0]         
__________________________________________________________________________________________________
block4e_add (Add)               (None, 16, 24, 160)  0           block4e_drop[0][0]               
                                                                 block4d_add[0][0]                
__________________________________________________________________________________________________
block4f_expand_conv (Conv2D)    (None, 16, 24, 960)  153600      block4e_add[0][0]                
__________________________________________________________________________________________________
block4f_expand_bn (BatchNormali (None, 16, 24, 960)  3840        block4f_expand_conv[0][0]        
__________________________________________________________________________________________________
block4f_expand_activation (Acti (None, 16, 24, 960)  0           block4f_expand_bn[0][0]          
__________________________________________________________________________________________________
block4f_dwconv (DepthwiseConv2D (None, 16, 24, 960)  8640        block4f_expand_activation[0][0]  
__________________________________________________________________________________________________
block4f_bn (BatchNormalization) (None, 16, 24, 960)  3840        block4f_dwconv[0][0]             
__________________________________________________________________________________________________
block4f_activation (Activation) (None, 16, 24, 960)  0           block4f_bn[0][0]                 
__________________________________________________________________________________________________
block4f_se_squeeze (GlobalAvera (None, 960)          0           block4f_activation[0][0]         
__________________________________________________________________________________________________
block4f_se_reshape (Reshape)    (None, 1, 1, 960)    0           block4f_se_squeeze[0][0]         
__________________________________________________________________________________________________
block4f_se_reduce (Conv2D)      (None, 1, 1, 40)     38440       block4f_se_reshape[0][0]         
__________________________________________________________________________________________________
block4f_se_expand (Conv2D)      (None, 1, 1, 960)    39360       block4f_se_reduce[0][0]          
__________________________________________________________________________________________________
block4f_se_excite (Multiply)    (None, 16, 24, 960)  0           block4f_activation[0][0]         
                                                                 block4f_se_expand[0][0]          
__________________________________________________________________________________________________
block4f_project_conv (Conv2D)   (None, 16, 24, 160)  153600      block4f_se_excite[0][0]          
__________________________________________________________________________________________________
block4f_project_bn (BatchNormal (None, 16, 24, 160)  640         block4f_project_conv[0][0]       
__________________________________________________________________________________________________
block4f_drop (Dropout)          (None, 16, 24, 160)  0           block4f_project_bn[0][0]         
__________________________________________________________________________________________________
block4f_add (Add)               (None, 16, 24, 160)  0           block4f_drop[0][0]               
                                                                 block4e_add[0][0]                
__________________________________________________________________________________________________
block4g_expand_conv (Conv2D)    (None, 16, 24, 960)  153600      block4f_add[0][0]                
__________________________________________________________________________________________________
block4g_expand_bn (BatchNormali (None, 16, 24, 960)  3840        block4g_expand_conv[0][0]        
__________________________________________________________________________________________________
block4g_expand_activation (Acti (None, 16, 24, 960)  0           block4g_expand_bn[0][0]          
__________________________________________________________________________________________________
block4g_dwconv (DepthwiseConv2D (None, 16, 24, 960)  8640        block4g_expand_activation[0][0]  
__________________________________________________________________________________________________
block4g_bn (BatchNormalization) (None, 16, 24, 960)  3840        block4g_dwconv[0][0]             
__________________________________________________________________________________________________
block4g_activation (Activation) (None, 16, 24, 960)  0           block4g_bn[0][0]                 
__________________________________________________________________________________________________
block4g_se_squeeze (GlobalAvera (None, 960)          0           block4g_activation[0][0]         
__________________________________________________________________________________________________
block4g_se_reshape (Reshape)    (None, 1, 1, 960)    0           block4g_se_squeeze[0][0]         
__________________________________________________________________________________________________
block4g_se_reduce (Conv2D)      (None, 1, 1, 40)     38440       block4g_se_reshape[0][0]         
__________________________________________________________________________________________________
block4g_se_expand (Conv2D)      (None, 1, 1, 960)    39360       block4g_se_reduce[0][0]          
__________________________________________________________________________________________________
block4g_se_excite (Multiply)    (None, 16, 24, 960)  0           block4g_activation[0][0]         
                                                                 block4g_se_expand[0][0]          
__________________________________________________________________________________________________
block4g_project_conv (Conv2D)   (None, 16, 24, 160)  153600      block4g_se_excite[0][0]          
__________________________________________________________________________________________________
block4g_project_bn (BatchNormal (None, 16, 24, 160)  640         block4g_project_conv[0][0]       
__________________________________________________________________________________________________
block4g_drop (Dropout)          (None, 16, 24, 160)  0           block4g_project_bn[0][0]         
__________________________________________________________________________________________________
block4g_add (Add)               (None, 16, 24, 160)  0           block4g_drop[0][0]               
                                                                 block4f_add[0][0]                
__________________________________________________________________________________________________
block4h_expand_conv (Conv2D)    (None, 16, 24, 960)  153600      block4g_add[0][0]                
__________________________________________________________________________________________________
block4h_expand_bn (BatchNormali (None, 16, 24, 960)  3840        block4h_expand_conv[0][0]        
__________________________________________________________________________________________________
block4h_expand_activation (Acti (None, 16, 24, 960)  0           block4h_expand_bn[0][0]          
__________________________________________________________________________________________________
block4h_dwconv (DepthwiseConv2D (None, 16, 24, 960)  8640        block4h_expand_activation[0][0]  
__________________________________________________________________________________________________
block4h_bn (BatchNormalization) (None, 16, 24, 960)  3840        block4h_dwconv[0][0]             
__________________________________________________________________________________________________
block4h_activation (Activation) (None, 16, 24, 960)  0           block4h_bn[0][0]                 
__________________________________________________________________________________________________
block4h_se_squeeze (GlobalAvera (None, 960)          0           block4h_activation[0][0]         
__________________________________________________________________________________________________
block4h_se_reshape (Reshape)    (None, 1, 1, 960)    0           block4h_se_squeeze[0][0]         
__________________________________________________________________________________________________
block4h_se_reduce (Conv2D)      (None, 1, 1, 40)     38440       block4h_se_reshape[0][0]         
__________________________________________________________________________________________________
block4h_se_expand (Conv2D)      (None, 1, 1, 960)    39360       block4h_se_reduce[0][0]          
__________________________________________________________________________________________________
block4h_se_excite (Multiply)    (None, 16, 24, 960)  0           block4h_activation[0][0]         
                                                                 block4h_se_expand[0][0]          
__________________________________________________________________________________________________
block4h_project_conv (Conv2D)   (None, 16, 24, 160)  153600      block4h_se_excite[0][0]          
__________________________________________________________________________________________________
block4h_project_bn (BatchNormal (None, 16, 24, 160)  640         block4h_project_conv[0][0]       
__________________________________________________________________________________________________
block4h_drop (Dropout)          (None, 16, 24, 160)  0           block4h_project_bn[0][0]         
__________________________________________________________________________________________________
block4h_add (Add)               (None, 16, 24, 160)  0           block4h_drop[0][0]               
                                                                 block4g_add[0][0]                
__________________________________________________________________________________________________
block4i_expand_conv (Conv2D)    (None, 16, 24, 960)  153600      block4h_add[0][0]                
__________________________________________________________________________________________________
block4i_expand_bn (BatchNormali (None, 16, 24, 960)  3840        block4i_expand_conv[0][0]        
__________________________________________________________________________________________________
block4i_expand_activation (Acti (None, 16, 24, 960)  0           block4i_expand_bn[0][0]          
__________________________________________________________________________________________________
block4i_dwconv (DepthwiseConv2D (None, 16, 24, 960)  8640        block4i_expand_activation[0][0]  
__________________________________________________________________________________________________
block4i_bn (BatchNormalization) (None, 16, 24, 960)  3840        block4i_dwconv[0][0]             
__________________________________________________________________________________________________
block4i_activation (Activation) (None, 16, 24, 960)  0           block4i_bn[0][0]                 
__________________________________________________________________________________________________
block4i_se_squeeze (GlobalAvera (None, 960)          0           block4i_activation[0][0]         
__________________________________________________________________________________________________
block4i_se_reshape (Reshape)    (None, 1, 1, 960)    0           block4i_se_squeeze[0][0]         
__________________________________________________________________________________________________
block4i_se_reduce (Conv2D)      (None, 1, 1, 40)     38440       block4i_se_reshape[0][0]         
__________________________________________________________________________________________________
block4i_se_expand (Conv2D)      (None, 1, 1, 960)    39360       block4i_se_reduce[0][0]          
__________________________________________________________________________________________________
block4i_se_excite (Multiply)    (None, 16, 24, 960)  0           block4i_activation[0][0]         
                                                                 block4i_se_expand[0][0]          
__________________________________________________________________________________________________
block4i_project_conv (Conv2D)   (None, 16, 24, 160)  153600      block4i_se_excite[0][0]          
__________________________________________________________________________________________________
block4i_project_bn (BatchNormal (None, 16, 24, 160)  640         block4i_project_conv[0][0]       
__________________________________________________________________________________________________
block4i_drop (Dropout)          (None, 16, 24, 160)  0           block4i_project_bn[0][0]         
__________________________________________________________________________________________________
block4i_add (Add)               (None, 16, 24, 160)  0           block4i_drop[0][0]               
                                                                 block4h_add[0][0]                
__________________________________________________________________________________________________
block4j_expand_conv (Conv2D)    (None, 16, 24, 960)  153600      block4i_add[0][0]                
__________________________________________________________________________________________________
block4j_expand_bn (BatchNormali (None, 16, 24, 960)  3840        block4j_expand_conv[0][0]        
__________________________________________________________________________________________________
block4j_expand_activation (Acti (None, 16, 24, 960)  0           block4j_expand_bn[0][0]          
__________________________________________________________________________________________________
block4j_dwconv (DepthwiseConv2D (None, 16, 24, 960)  8640        block4j_expand_activation[0][0]  
__________________________________________________________________________________________________
block4j_bn (BatchNormalization) (None, 16, 24, 960)  3840        block4j_dwconv[0][0]             
__________________________________________________________________________________________________
block4j_activation (Activation) (None, 16, 24, 960)  0           block4j_bn[0][0]                 
__________________________________________________________________________________________________
block4j_se_squeeze (GlobalAvera (None, 960)          0           block4j_activation[0][0]         
__________________________________________________________________________________________________
block4j_se_reshape (Reshape)    (None, 1, 1, 960)    0           block4j_se_squeeze[0][0]         
__________________________________________________________________________________________________
block4j_se_reduce (Conv2D)      (None, 1, 1, 40)     38440       block4j_se_reshape[0][0]         
__________________________________________________________________________________________________
block4j_se_expand (Conv2D)      (None, 1, 1, 960)    39360       block4j_se_reduce[0][0]          
__________________________________________________________________________________________________
block4j_se_excite (Multiply)    (None, 16, 24, 960)  0           block4j_activation[0][0]         
                                                                 block4j_se_expand[0][0]          
__________________________________________________________________________________________________
block4j_project_conv (Conv2D)   (None, 16, 24, 160)  153600      block4j_se_excite[0][0]          
__________________________________________________________________________________________________
block4j_project_bn (BatchNormal (None, 16, 24, 160)  640         block4j_project_conv[0][0]       
__________________________________________________________________________________________________
block4j_drop (Dropout)          (None, 16, 24, 160)  0           block4j_project_bn[0][0]         
__________________________________________________________________________________________________
block4j_add (Add)               (None, 16, 24, 160)  0           block4j_drop[0][0]               
                                                                 block4i_add[0][0]                
__________________________________________________________________________________________________
global_max_horizontal_pooling2d (None, 16, 160)      0           block4j_add[0][0]                
__________________________________________________________________________________________________
conv1d_transpose (Conv1DTranspo (None, 32, 256)      82176       global_max_horizontal_pooling2d[0
__________________________________________________________________________________________________
dropout (Dropout)               (None, 32, 256)      0           conv1d_transpose[0][0]           
__________________________________________________________________________________________________
global_max_horizontal_pooling2d (None, 32, 80)       0           block3g_add[0][0]                
__________________________________________________________________________________________________
concatenate (Concatenate)       (None, 32, 336)      0           dropout[0][0]                    
                                                                 global_max_horizontal_pooling2d_1
__________________________________________________________________________________________________
conv1d (Conv1D)                 (None, 32, 256)      258304      concatenate[0][0]                
__________________________________________________________________________________________________
batch_normalization (BatchNorma (None, 32, 256)      1024        conv1d[0][0]                     
__________________________________________________________________________________________________
activation (Activation)         (None, 32, 256)      0           batch_normalization[0][0]        
__________________________________________________________________________________________________
conv1d_1 (Conv1D)               (None, 32, 256)      196864      activation[0][0]                 
__________________________________________________________________________________________________
batch_normalization_1 (BatchNor (None, 32, 256)      1024        conv1d_1[0][0]                   
__________________________________________________________________________________________________
activation_1 (Activation)       (None, 32, 256)      0           batch_normalization_1[0][0]      
__________________________________________________________________________________________________
conv1d_transpose_1 (Conv1DTrans (None, 64, 128)      65664       activation_1[0][0]               
__________________________________________________________________________________________________
dropout_1 (Dropout)             (None, 64, 128)      0           conv1d_transpose_1[0][0]         
__________________________________________________________________________________________________
global_max_horizontal_pooling2d (None, 64, 48)       0           block2g_add[0][0]                
__________________________________________________________________________________________________
concatenate_1 (Concatenate)     (None, 64, 176)      0           dropout_1[0][0]                  
                                                                 global_max_horizontal_pooling2d_2
__________________________________________________________________________________________________
conv1d_2 (Conv1D)               (None, 64, 128)      67712       concatenate_1[0][0]              
__________________________________________________________________________________________________
batch_normalization_2 (BatchNor (None, 64, 128)      512         conv1d_2[0][0]                   
__________________________________________________________________________________________________
activation_2 (Activation)       (None, 64, 128)      0           batch_normalization_2[0][0]      
__________________________________________________________________________________________________
conv1d_3 (Conv1D)               (None, 64, 128)      49280       activation_2[0][0]               
__________________________________________________________________________________________________
batch_normalization_3 (BatchNor (None, 64, 128)      512         conv1d_3[0][0]                   
__________________________________________________________________________________________________
activation_3 (Activation)       (None, 64, 128)      0           batch_normalization_3[0][0]      
__________________________________________________________________________________________________
conv1d_transpose_2 (Conv1DTrans (None, 128, 128)     32896       activation_3[0][0]               
__________________________________________________________________________________________________
dropout_2 (Dropout)             (None, 128, 128)     0           conv1d_transpose_2[0][0]         
__________________________________________________________________________________________________
global_max_horizontal_pooling2d (None, 128, 32)      0           block1d_add[0][0]                
__________________________________________________________________________________________________
concatenate_2 (Concatenate)     (None, 128, 160)     0           dropout_2[0][0]                  
                                                                 global_max_horizontal_pooling2d_3
__________________________________________________________________________________________________
conv1d_4 (Conv1D)               (None, 128, 128)     61568       concatenate_2[0][0]              
__________________________________________________________________________________________________
batch_normalization_4 (BatchNor (None, 128, 128)     512         conv1d_4[0][0]                   
__________________________________________________________________________________________________
activation_4 (Activation)       (None, 128, 128)     0           batch_normalization_4[0][0]      
__________________________________________________________________________________________________
conv1d_5 (Conv1D)               (None, 128, 128)     49280       activation_4[0][0]               
__________________________________________________________________________________________________
batch_normalization_5 (BatchNor (None, 128, 128)     512         conv1d_5[0][0]                   
__________________________________________________________________________________________________
activation_5 (Activation)       (None, 128, 128)     0           batch_normalization_5[0][0]      
__________________________________________________________________________________________________
conv1d_transpose_3 (Conv1DTrans (None, 256, 64)      16448       activation_5[0][0]               
__________________________________________________________________________________________________
dropout_3 (Dropout)             (None, 256, 64)      0           conv1d_transpose_3[0][0]         
__________________________________________________________________________________________________
global_max_horizontal_pooling2d (None, 256, 3)       0           normalization[0][0]              
__________________________________________________________________________________________________
concatenate_3 (Concatenate)     (None, 256, 67)      0           dropout_3[0][0]                  
                                                                 global_max_horizontal_pooling2d_4
__________________________________________________________________________________________________
conv1d_6 (Conv1D)               (None, 256, 64)      12928       concatenate_3[0][0]              
__________________________________________________________________________________________________
batch_normalization_6 (BatchNor (None, 256, 64)      256         conv1d_6[0][0]                   
__________________________________________________________________________________________________
activation_6 (Activation)       (None, 256, 64)      0           batch_normalization_6[0][0]      
__________________________________________________________________________________________________
conv1d_7 (Conv1D)               (None, 256, 64)      12352       activation_6[0][0]               
__________________________________________________________________________________________________
batch_normalization_7 (BatchNor (None, 256, 64)      256         conv1d_7[0][0]                   
__________________________________________________________________________________________________
activation_7 (Activation)       (None, 256, 64)      0           batch_normalization_7[0][0]      
__________________________________________________________________________________________________
conv1d_8 (Conv1D)               (None, 256, 1)       65          activation_7[0][0]               
==================================================================================================
Total params: 5,676,608
Trainable params: 5,549,241
Non-trainable params: 127,367
__________________________________________________________________________________________________
